model5_1_scripted.pt (torch, 282812 bytes, 15 tensors)

weight f4 [104, 13]
000000 c5 93 0c 3e f5 18 47 3e 3b a3 c0 bd be 57 08 3f
       0.13728245 0.19443114 -0.09406134 0.53258884
000010 42 43 a3 be a3 54 b8 3e 8e 1d c2 3d 01 6b 4a 3f
       -0.3188725 0.36002073 0.09478293 0.79069525
000020 a6 ca 62 3e 28 af d8 3e f1 2e 3d 3f f0 fa 91 3d
       0.22147617 0.42321134 0.7389975 0.07127941
000030 9a 21 af 3e 2e 90 8f 3d e4 e3 e7 3d 7a 4d 84 bd
       0.34205323 0.07009922 0.113227636 -0.0646009
000040 eb 97 49 bc 59 77 e3 3e fd a0 ef bd 94 a6 48 3d
       -0.0123042865 0.44426993 -0.11700628 0.048986986
000050 53 33 f3 be d1 01 c3 bc c9 6e b8 bf 2d 11 8b 3d
       -0.47500095 -0.023804577 -1.4408809 0.067903854
000060 00 02 97 3e 54 80 70 bd 52 f4 9f be 1a d7 68 bd
       0.29493713 -0.058716133 -0.3124109 -0.05684576
000070 86 b6 05 3e 24 dd 32 bf 4a c9 97 3f 24 9a d0 3d
       0.13057908 -0.69868684 1.1858304 0.1018565
000080 e6 a1 e8 3e 40 e4 2e bf 0e 3c b1 bc 8e 93 b0 bd
       0.4543602 -0.6831703 -0.021635082 -0.08621894
000090 82 a3 78 bf 13 f6 0b 3f b9 c3 10 3e 36 ad 20 be
       -0.97124493 0.54672354 0.14137162 -0.15691075
0000a0 27 41 37 3d 20 1b cc bd df e2 82 3e 6b ee c7 3c
       0.04473987 -0.09966111 0.25563714 0.024405679
0000b0 3d f5 06 3f e1 77 b6 3e 4c e1 66 3f ca ec 6a 3d
       0.52717954 0.35638335 0.90187526 0.057354726
0000c0 dd 61 9c 3f 2c 03 f3 3e 80 00 b2 be 3c c0 2f 3d
       1.2217366 0.47463357 -0.34766006 0.04290794
0000d0 dc c8 ea be 09 5e 3f 3e c4 0e 55 3d a6 5e d4 3e
       -0.4585637 0.18688215 0.052016035 0.4147846
0000e0 de e8 42 bb 68 7b db 3e d4 a7 4a 3f ea dd a7 3e
       -0.002974085 0.4286759 0.79162335 0.32786494
0000f0 05 3c 88 bc 7e 5f 24 3f 85 a6 0e 3f 72 52 96 3c
       -0.016630182 0.6420821 0.5572284 0.01834986
000100 ed f6 44 3e 52 03 10 3e 0f 56 81 3e e4 6f 08 be
       0.1923482 0.14063767 0.2526097 -0.13323933
000110 b7 ba e8 bd a1 a3 6e bf 7c 5e 02 bf cd bb d2 be
       -0.11363738 -0.9321843 -0.5092542 -0.41158906
000120 23 cf 4d be c1 ca 95 be 94 90 6e bf a4 ff 48 bf
       -0.20098548 -0.2925625 -0.9318936 -0.78515077
000130 16 e5 18 bf b8 48 8a be d6 d3 fc 3d 7d bc 5f 3e
       -0.5972456 -0.27008605 0.12345092 0.21849246
000140 ac 0e 3a be 5d bd 10 bf d8 1c ed 3e 5d 4c 4c be
       -0.1816966 -0.56538945 0.4631107 -0.19951005
000150 16 66 93 3d cd 27 b8 be 08 6a 35 3e 60 fd e7 bf
       0.07197206 -0.35967866 0.17716229 -1.8124199
000160 d0 e3 79 be 39 9a 01 3f a9 c7 35 3e b4 2f 17 bf
       -0.2440331 0.5062595 0.17751946 -0.59057164
000170 65 4a 84 3d 21 b9 04 3e ac 2e a3 3c 79 39 00 3f
       0.06459502 0.12961246 0.019919716 0.50087696
000180 65 7c 63 3f bf b2 60 bd 0e 91 94 bc 8d 07 86 be
       0.88861686 -0.054857966 -0.018135574 -0.26177636
000190 85 b1 fa 3f 7f b4 63 3e 18 b9 f0 bd 2a 63 a4 be
       1.9585425 0.22236823 -0.11754054 -0.32106906
0001a0 24 fa 83 3e 81 8f 74 bc f8 93 cf bd 52 d6 b0 3d
       0.2577678 -0.014926792 -0.10135645 0.08634628
0001b0 d0 4f 64 3f a6 15 27 3e 7b 29 aa 3e fd a6 b1 be
       0.89184284 0.16316852 0.33234772 -0.34697714
0001c0 cd 90 ec 3d b0 81 f0 bf ad 36 e4 bd 27 cc 4d 3f
       0.11551056 -1.8789577 -0.11143241 0.80389637
0001d0 e7 d7 9c 3e 7a a3 79 be 25 61 ef 3c 17 60 85 bc
       0.3063347 -0.24378768 0.029221127 -0.01628117
0001e0 50 6b 97 be a2 77 d2 be 14 cf 71 3c 9f 35 39 bf
       -0.2957406 -0.41106898 0.014758844 -0.72347444
0001f0 65 75 de bc 0c 86 66 bd ae 4c 0b 40 16 8e 41 bf
       -0.027155587 -0.05628018 2.1765552 -0.7560743
000200 c0 57 e6 be 0f 30 d0 be 14 0c a1 3e b0 77 fa 3d
       -0.44988823 -0.40661666 0.31454527 0.1222986
000210 98 68 62 be e1 4c 40 3e d7 60 e3 bc bd cc 00 be
       -0.22110212 0.18779327 -0.027756138 -0.12578101
000220 61 ee a8 be db 1e d7 be 93 dd f6 3d 30 30 38 bf
       -0.3299437 -0.42015728 0.12053981 -0.7194853
000230 88 a9 11 bd f7 93 fd 3d 5a a5 9e 3e c6 fe c5 be
       -0.03556207 0.12381738 0.30985528 -0.3867094
000240 cd aa c1 bc f1 76 ac 3d cf 4b bf 3e 5f c8 f4 bc
       -0.023641014 0.08421124 0.37362525 -0.0298807
000250 0d be 23 be 06 1b 7f bf c5 19 2f bf 53 31 8f bd
       -0.15990467 -0.9965061 -0.68398696 -0.0699183
000260 6a c1 c3 be 72 0b 63 bf 2b fc 42 bd 64 05 38 bf
       -0.382335 -0.8868934 -0.047603767 -0.71883225
000270 6e d8 e1 bc 68 38 dd 3c a5 7f b0 3c d3 86 5d be
       -0.027569022 0.027004436 0.02154524 -0.21633463
000280 4d b8 7b 3f 49 58 49 3e 56 bc 43 3e 64 eb 10 bf
       0.98328096 0.19662584 0.19114813 -0.5660918
000290 6c f9 54 3d a2 fd 15 c0 c7 08 8a be 5b 2b 9a 3f
       0.05199568 -2.3436055 -0.26959822 1.2044481
0002a0 81 06 72 3e dc a3 50 3e fc 16 99 bd 8f eb 41 3d
       0.23635294 0.20375007 -0.07475087 0.047343787
0002b0 e8 37 eb 3d ea 9f 58 3f cf 7e cb be 52 f8 4c bf
       0.11485273 0.8461901 -0.39745185 -0.80066407
0002c0 e9 31 96 bf 0d 34 5a 3e 3a 64 12 bf 0c 9c 11 bf
       -1.1733981 0.21308918 -0.57184184 -0.56878734
0002d0 62 43 64 3e 8d 7d 42 3e 53 d2 3e 3e b3 27 91 bd
       0.2229133 0.18993206 0.1863492 -0.0708765
0002e0 58 3e 35 3e 38 d1 e4 3d 8f 82 70 bf eb de 7a bf
       0.17699564 0.11172718 -0.93949217 -0.97996396
0002f0 1b 95 38 bf ae 08 b6 be 4b de 26 bd 83 8e e1 be
       -0.72102517 -0.35553497 -0.04073934 -0.4405404
000300 67 fb 2a bf bb ed 07 bf cb c1 eb be 26 a9 18 be
       -0.6678986 -0.5309712 -0.4604629 -0.14908275
000310 10 bf 80 39 72 2f 9e bc 85 d8 5d 3e fd 54 71 3d
       0.00024556415 -0.019309733 0.21664627 0.05891894
000320 92 30 30 3e 62 9e b1 3e ac ed 60 3f 5d 7d f0 3d
       0.17206028 0.3469115 0.8786266 0.11742661
000330 c2 ea 3e 3f b8 53 00 3f c9 41 a1 bd 31 9c 3d bc
       0.7457696 0.50127745 -0.07873876 -0.011572883
000340 97 01 5a be eb c0 76 3d 6c 74 1e 3e a8 20 ca 3e
       -0.21289669 0.060242575 0.15474099 0.3947804
000350 d3 60 1a bf 40 ba 1b 3e 24 52 be 3e b1 2d 60 3f
       -0.6030399 0.15207767 0.37172043 0.8756972
000360 cc 08 f1 3c e7 df 83 3f 2a fe 0c 3f 4b 6d 5f be
       0.02942314 1.0302705 0.55075324 -0.21819036
000370 64 ad b9 bd 9a 4b 9f 3e bb 17 ac bc 0a fd 8e 3d
       -0.09066275 0.31112367 -0.02100741 0.06981857
000380 84 b9 d9 be fb 21 56 3e 88 2b ba 3e 55 80 85 be
       -0.4252435 0.209114 0.36361337 -0.26074472
000390 50 10 d0 be de 3b 20 be 15 b2 14 40 e1 13 15 3f
       -0.40637445 -0.15647838 2.3233693 0.5823346
0003a0 65 29 a4 be d3 a8 0d bd 6e 98 9e 3e ea 1d b2 3d
       -0.32062832 -0.03458483 0.3097567 0.08697112
0003b0 39 32 2c 3c ef 61 d4 be ac 8a 54 be 87 64 3a bf
       0.010510021 -0.41480967 -0.20756024 -0.7280964
0003c0 80 18 dc be 4b ca 44 bf c4 4c f7 3c 26 98 81 bf
       -0.42987442 -0.76871175 0.030187972 -1.0124557
0003d0 97 9d 37 bf f9 45 b9 be 50 72 c8 be cf e4 71 3e
       -0.7172484 -0.36186197 -0.39149714 0.2362244
0003e0 f6 49 f9 bc 52 b6 62 3e 92 58 14 bd 7b fd 84 bf
       -0.030430775 0.22139862 -0.03621728 -1.0389856
0003f0 62 f8 4c bf 8d 40 6d bf e5 6b d1 be 1b e5 8a be
       -0.800665 -0.9267662 -0.4090263 -0.2712792

bias f4 [104]
000000 e2 c1 5f be 58 bc 69 3e f2 af 1e 3f a9 6a b8 be
       -0.21851304 0.22825754 0.6198722 -0.36018875
000010 ba e5 02 bf 3f b4 cb 3e a2 52 6e 3e 64 4a db be
       -0.51131785 0.39785954 0.2327371 -0.42830193
000020 85 ea 4d 3e a3 71 b0 3d e2 33 07 be 8d 63 9c 3d
       0.20108993 0.086154245 -0.13203385 0.07636175
000030 7f 43 80 3e 94 b5 9a 3e ad b9 86 bd 72 ea f5 be
       0.25051495 0.30216658 -0.065783836 -0.4803043
000040 1e ff b7 bd 17 f8 ac 3e bd 56 aa 3e af eb be 3e
       -0.089842066 0.33783028 0.332693 0.37289187
000050 31 be ab 3e 86 78 03 be b6 f2 97 3e 27 b9 88 be
       0.33543542 -0.12838945 0.2967736 -0.2670376
000060 b2 14 ac bd c2 c9 1d 3f bd 79 ce 3e f7 52 9c 3e
       -0.08402385 0.61635983 0.40327254 0.30532047
000070 d1 99 16 be ee 55 82 be cf 4b e2 bd fa 77 9f 3e
       -0.14707114 -0.25456184 -0.110496156 0.31146222
000080 20 1e ba 3e 80 cd 0f 3e bd 33 7f bd c7 78 2b 3e
       0.3635111 0.14043236 -0.0623052 0.16745292
000090 74 0c 87 3d 09 a0 40 bf 14 08 c6 be 4c f8 e7 bc
       0.06594172 -0.75244194 -0.38678038 -0.02831664
0000a0 fe 30 0e be d9 6d 09 be 49 1b f4 bd b7 c6 02 bf
       -0.13885877 -0.1342081 -0.11919267 -0.51084465
0000b0 d5 2b af be 8e 79 57 bd 4c 52 78 3c 83 82 a3 3b
       -0.3421313 -0.052606158 0.01515634 0.0049899234
0000c0 b2 6b 97 3e 5e d1 3b 3d 1c 4b 80 3b 54 43 55 be
       0.29574353 0.045853965 0.0039152037 -0.20826465
0000d0 d9 b2 c5 be d3 b0 af be f0 d9 ce bd 21 df 5f be
       -0.38613012 -0.34314594 -0.10100162 -0.2186246
0000e0 08 58 44 be 17 b2 4f be 75 e9 e6 3e 12 bc 5f 3e
       -0.19174206 -0.2028278 0.4509999 0.21849087
0000f0 bd 33 47 3e d0 32 50 3b b4 69 ce be 5f fa 58 be
       0.1945333 0.0031768568 -0.4031502 -0.21189259
000100 34 7c 90 3e 00 49 27 3e f5 c1 29 3d cc 9a 90 be
       0.2821976 0.16336441 0.041444737 -0.282431
000110 5c 88 95 be d3 22 14 3f f6 ce bb be 0a 3e 06 bf
       -0.29205596 0.5786564 -0.36681336 -0.52438414
000120 c3 e7 cb 3e 85 31 ad be 47 42 8a 3e 75 25 85 be
       0.39825258 -0.33826843 0.2700369 -0.2600514
000130 4c 68 97 3e fa 78 94 3e 49 dd cf 3e d8 a3 ba be
       0.2957176 0.28998548 0.40598515 -0.36453128
000140 6d a7 36 be 08 68 da 3e 9a 69 26 bf 34 aa bb bd
       -0.17837305 0.42657495 -0.65004885 -0.09163323
000150 f2 3c 3a be 75 20 bb 3e 92 08 0c be 34 20 52 3e
       -0.18187311 0.365482 -0.13675144 0.20520097
000160 7b cd 70 3e 7e cf aa be d0 44 d5 be c1 33 59 3c
       0.23515885 -0.3336143 -0.41654062 0.013256968
000170 4e 71 60 3b 19 fc cc be 4b 56 17 3f 50 51 e9 3e
       0.0034247222 -0.40036085 0.5911605 0.4556985
000180 e5 30 0e bf c1 d6 c6 3e 39 ee 79 be b8 40 cb bd
       -0.5554336 0.3883572 -0.24407281 -0.099244535
000190 15 f6 63 be db 30 fb 3e f4 a8 6d be a1 14 48 3e
       -0.22261842 0.4906071 -0.23208982 0.1953912

weight f4 [104, 104]
000000 81 a3 04 3d c5 e7 07 3c bf fe 86 bd 6d 62 66 3d
       0.032382492 0.008295004 -0.06591558 0.05624621
000010 bd 98 ab bd a0 39 30 bc f1 0c 3c bc bf b1 7c bc
       -0.08378742 -0.010755926 -0.011477695 -0.015423237
000020 09 9b 8b bd 87 4d 48 3b 12 cf a7 bc 34 6c d5 bd
       -0.0681668 0.0030563788 -0.020484481 -0.10421029
000030 b5 1c 2f 3d 53 0a 9b bd 6e fd 84 be 0a 8c c9 3d
       0.042751987 -0.075703286 -0.25974602 0.098411635
000040 40 16 84 3c 9b c7 b8 3d 8e a3 4e be b0 26 14 3d
       0.01612389 0.09022447 -0.20179579 0.036169708
000050 cf 4b d4 be b5 64 9e 3c c2 2d 77 bc 36 65 1d 3e
       -0.41464087 0.01933513 -0.015086593 0.1537064
000060 88 b7 98 3c 37 79 b0 bd 38 f9 8f bd ee 83 91 bd
       0.018642202 -0.0861687 -0.070299566 -0.07105242
000070 22 39 5e 3c 6c bd 39 bd 2f eb 2f 3e 95 df 8b 3e
       0.013563426 -0.045346662 0.17179559 0.27319017
000080 e4 33 69 bb 72 c0 96 3d 52 d0 57 bd 10 96 d8 bd
       -0.0035583908 0.07360925 -0.052688904 -0.10575497
000090 8a 2a 3b bd 53 a1 30 3d cf 86 b0 bc fe a8 64 39
       -0.045694865 0.0431226 -0.021548657 0.00021806729
0000a0 3d 6b a3 bd 3b cc c2 3b 29 35 92 3d 76 e5 ec 3d
       -0.079794385 0.0059447563 0.07139046 0.11567204
0000b0 de 57 bd 3d e3 89 cc 3c cb 45 8f bd 08 dd 69 bd
       0.09245275 0.024968093 -0.06995734 -0.057095557
0000c0 79 46 40 b8 0a ff b6 bd ee 5d a2 be 5c 8b af 3d
       -4.5842e-05 -0.089353636 -0.31712288 0.085715026
0000d0 81 22 34 3e 67 e0 65 3d c2 72 9a 3e 69 69 e7 3d
       0.17591287 0.05612221 0.30165678 0.11299402
0000e0 23 b8 06 3d ec 4b 94 3d eb 31 24 be 16 b2 1e be
       0.03289045 0.072410434 -0.16034667 -0.15497622
0000f0 08 62 e6 3a 68 96 f2 3c 66 ee ba 3d 11 56 7a bb
       0.0017576823 0.029612735 0.09127502 -0.0038198272
000100 ea 98 16 3c 02 90 f8 3b 46 77 61 3d 3a ef 66 3e
       0.009191731 0.0075855264 0.05504539 0.22552195
000110 44 bf 03 3d 19 00 cb bd d1 04 00 bb 51 b9 2f 3d
       0.032164827 -0.09912128 -0.001953412 0.04290134
000120 e0 e5 80 bd 43 7d a4 3d 38 19 bc bc 04 a2 ca 3d
       -0.06293845 0.08031704 -0.022961244 0.09894183
000130 6d f2 67 bf c2 74 13 bf 88 1f e6 bb 57 a5 ca 3c
       -0.9060429 -0.57600033 -0.007022802 0.024737043
000140 10 79 d3 3c 4a 12 2d bd 8e 0d f0 bc eb cf 19 bd
       0.025814563 -0.04225377 -0.029303338 -0.0375518
000150 a8 fe 40 3c ab dc a4 3d 04 19 37 3d 60 3c 93 3d
       0.011779465 0.080499016 0.04470159 0.0718925
000160 e5 f8 36 3e db 56 c4 3d 37 eb 24 3e f0 a2 2f bb
       0.17868383 0.09586879 0.16105352 -0.00268
000170 be ac 1e bd 6a de 1d bd 20 46 e2 bd 11 42 59 be
       -0.03873896 -0.03854219 -0.110485315 -0.21216609
000180 3b e6 6c 3e fd 26 b7 3c 01 82 38 3d a3 0b 31 3c
       0.23134701 0.022357458 0.045045856 0.010805997
000190 7a d3 a6 3e bd 24 db bd 26 d0 c4 3c 3d 46 1e be
       0.3258322 -0.10700367 0.024025034 -0.15456481
0001a0 8c 46 f2 3c 82 ff 58 3d d7 b3 af 3d 30 17 fe bc
       0.029574655 0.052978046 0.085792236 -0.031016916
0001b0 d0 76 fd bb 5c 8c ee bc 00 db bb b9 ca ed 00 3d
       -0.007735111 -0.029119663 -0.00035830587 0.031476773
0001c0 20 32 0d bb c0 c0 94 3b 90 88 4b 3c 8a 94 15 3d
       -0.002154477 0.004539579 0.012422696 0.03651861
0001d0 44 b8 f3 bc 1e 80 6f bd 2c 84 bd 3c 78 3a 3e bc
       -0.02975095 -0.05847179 0.023134314 -0.01161062
0001e0 f1 f4 35 bd 2a ad 28 3d 80 1f 69 3a 78 b3 69 bc
       -0.044423047 0.041180767 0.00088929385 -0.01426398
0001f0 24 6e 42 bd 20 5f 53 bc c8 c3 aa bd b8 bd b6 3c
       -0.04746832 -0.012901098 -0.083381236 0.022307262
000200 40 e0 c0 3a ba bb 73 3d c0 79 cf 3b 30 73 00 3c
       0.0014715269 0.059505202 0.0063316524 0.007839963
000210 bc d3 da 3c 4f d0 98 3d 03 cd 3d bd de c8 6f 3d
       0.026712291 0.07461607 -0.046338093 0.05854117
000220 4c 74 c4 3c eb f8 85 bd 0a d9 0b 3d 66 e1 70 bd
       0.023981236 -0.06541618 0.03414253 -0.058808707
000230 60 dc fc bc ba 73 3f bd 68 9f 88 bd 93 29 9e 3d
       -0.030866802 -0.046741225 -0.06671029 0.077227734
000240 ee 7f b3 bd 36 d4 48 3d 36 be b4 bd e8 87 43 bc
       -0.08764635 0.049030505 -0.08825342 -0.011934258
000250 f0 a3 bf 3b 63 c4 8e 3d 60 5a 11 bd 9c 35 e7 3c
       0.0058484003 0.069710515 -0.03548658 0.028223805
000260 88 de 78 3c 86 52 6c 3d 20 07 bf 3b e6 64 16 3d
       0.015189774 0.057695888 0.005829707 0.036717318
000270 6d a1 72 bd d7 8d 8b bd e5 f2 b2 3d 42 55 92 bd
       -0.05923598 -0.06814163 0.08737735 -0.07145168
000280 8c c0 88 bc 38 34 42 bc 79 61 c4 3d 2c 9a ad bc
       -0.016693376 -0.01185327 0.09588904 -0.021191679
000290 2b e3 98 bd 30 a2 cb bc 6a 2d 4f 3d 16 2b 1f 3d
       -0.07465204 -0.02485761 0.05058042 0.03885945
0002a0 a3 23 a6 3d 88 72 a4 bc 86 31 3d 3d 7f fb bc bd
       0.08112266 -0.020074144 0.046189807 -0.092276566
0002b0 aa 69 1b 3d ae 8a 38 3d 5b 8c 81 3d 18 52 66 bd
       0.037942566 0.04505413 0.06325599 -0.056230634
0002c0 24 76 d6 bc 14 57 c2 3c 2d b5 8e bd 35 c0 9f bd
       -0.02617938 0.023723163 -0.0696815 -0.078003325
0002d0 43 33 c1 bd 40 5e b3 3b ce 6a 79 3d 5c 55 ce 3c
       -0.094336055 0.005473882 0.060892873 0.025187187
0002e0 00 e4 c3 3b 9e f1 0b 3d 5a 65 7c bd 28 60 29 3c
       0.0059781075 0.03416597 -0.061620094 0.010337867
0002f0 7c 8e c7 bc 55 df 46 bd 2d 2f ad 3d 00 5e 9b bd
       -0.024359934 -0.04855283 0.08456264 -0.075862885
000300 28 71 6b 3c 33 77 b0 bd 40 06 5a bb e6 79 32 bd
       0.01437024 -0.086164854 -0.0033267885 -0.043573283
000310 62 33 04 3d 16 8a 61 bd dd 88 80 3d 0e f6 a2 bd
       0.032275565 -0.05506333 0.062761046 -0.079570875
000320 2a 3e 71 3d a3 da 96 bd 9a 1d 57 3d 9c 1e 29 bd
       0.058897175 -0.073659204 0.052518465 -0.041288957
000330 00 88 6f b9 80 9a 92 bc 13 57 82 3d 62 a1 03 3d
       -0.0002284348 -0.017895937 0.06364264 0.03213633
000340 6f c3 a4 bd 21 9c 79 bc 05 93 19 bd 1f 65 fd 3d
       -0.080450885 -0.015234978 -0.037493724 0.12372803
000350 85 27 8e 3c 8c 54 0f be cc bd 83 bd 3b 55 39 3d
       0.017352829 -0.13997096 -0.06432685 0.045247298
000360 06 5f 94 bd fd 2a b2 3c 5b 70 0e ba 7f 96 84 3d
       -0.07244687 0.021749014 -0.00054336124 0.06474017
000370 5a 03 01 3d d2 2f 6a be 40 02 fd bd 18 99 60 3c
       0.031497337 -0.22869805 -0.12353945 0.013708375
000380 f6 b9 7f bc 37 24 48 3c 51 f4 6e bd 16 b0 f5 3d
       -0.015608301 0.012215666 -0.058338467 0.11996476
000390 95 9c 6e 3d 85 24 e6 3b da ef db bd 5b 77 7e 3e
       0.058254797 0.0070233964 -0.107391074 0.24850218
0003a0 0d 94 60 bd 85 63 54 3e 87 9e 28 bd 56 3d 32 bd
       -0.054828692 0.20741089 -0.04116681 -0.043515526
0003b0 33 f9 1d 3d 2b 39 be 3d f1 ef 16 3e eb bf ac 3d
       0.038567733 0.09288248 0.14739968 0.08435043
0003c0 13 c5 69 3b f5 c0 a1 3c 7d 4c d6 bc f0 f9 7b bd
       0.0035670444 0.01974533 -0.02615952 -0.061517656
0003d0 f3 98 82 bd 42 ea 0f 3d 59 10 27 3e bd f4 f8 bc
       -0.06376829 0.035135515 0.1631483 -0.030390138
0003e0 72 2f 2d 3d d9 9f 7e 3d b0 4f b0 3d 1b 64 84 bd
       0.042281576 0.06216416 0.08608949 -0.06464406
0003f0 79 45 b0 3c 01 14 a7 3d 24 d3 74 be 9e 06 f8 3d
       0.021517502 0.08158112 -0.23908669 0.12110637

bias f4 [104]
000000 78 00 ad be 77 c1 b7 bd 9e 29 29 be 0c df 52 be
       -0.3378942 -0.08972447 -0.16519782 -0.20592898
000010 41 86 82 bd ee b3 b5 be 47 d5 e9 bd 10 6a 92 bc
       -0.06373263 -0.35488838 -0.114176326 -0.01787284
000020 f0 ab 2c bd 7a c6 bf 3c 36 05 66 be 48 29 88 bd
       -0.04215616 0.02341007 -0.22462925 -0.06648499
000030 44 1f 49 3d 9f 50 dc 39 bc 96 12 bf e2 b9 90 be
       0.049102083 0.00042021737 -0.5726125 -0.28266817
000040 40 d0 0d bb 7a cb 0b 3d 63 77 b9 bd 08 cd ba bc
       -0.002163902 0.034129597 -0.09055974 -0.022802845
000050 6c f0 60 be e2 a3 e2 be 75 5e 40 3d d3 d8 11 bd
       -0.21966714 -0.44265658 0.04696508 -0.03560717
000060 3c 3d e0 bd 98 54 e7 bc d4 9a 8c bd fd 9c fd bd
       -0.109491795 -0.02823858 -0.068654686 -0.12383459
000070 58 44 7c bc b0 6f 73 bd b4 a9 bc be 0a d2 c0 bc
       -0.015397154 -0.059432685 -0.36848223 -0.023537654
000080 0e a9 92 be 6d 15 12 3c 78 7f 14 bf 01 3e 14 3e
       -0.28644603 0.008916241 -0.58007 0.14476778
000090 38 6b b6 3d 38 03 96 be f8 b7 b7 be d5 8b 19 3f
       0.08907169 -0.2929933 -0.35882545 0.5997899
0000a0 b0 fd 21 bd ca 3c 59 be f4 28 9b bd cd 03 98 3d
       -0.039548576 -0.21214595 -0.075761706 0.074226
0000b0 2e fd 47 3d 3c 7f e5 bc 95 c9 da bd 53 e0 ac be
       0.048825435 -0.028014772 -0.1068298 -0.33764896
0000c0 25 fc 7f be ce 37 63 be 78 d2 a9 bd 66 57 ad be
       -0.2499853 -0.22189257 -0.08292097 -0.33855742
0000d0 ac 97 a2 3c c3 0a 8d 3d 06 22 9e be 0b f4 f1 be
       0.019847713 0.06886818 -0.30885333 -0.47256503
0000e0 42 80 ae be f6 eb 73 be 45 89 c7 be 2e c8 7e be
       -0.34082228 -0.2382048 -0.38971916 -0.2488105
0000f0 35 89 23 bd ef f8 33 be 4b b0 3c 3c 93 56 bd bd
       -0.039925773 -0.1757543 0.011516641 -0.09245028
000100 67 8a 46 be 24 7a 3f be 83 fb 93 be 49 f6 b6 bb
       -0.19388734 -0.18698937 -0.28902826 -0.0055835587
000110 48 34 1c be 41 f0 34 3d 0a d0 94 be 00 36 0c 3b
       -0.15254319 0.044174436 -0.2906497 0.0021394491
000120 e5 4f 9b 3d ba a7 eb be f1 65 b2 be 2c 44 b5 3e
       0.07583598 -0.46026403 -0.348434 0.35403574
000130 14 37 b2 bd 8e f2 7f 3e f9 88 a5 3d 38 5a 49 3c
       -0.087019116 0.24994871 0.08082766 0.012289576
000140 dc cf 15 be 93 5a 9f 3d da 65 37 3d 02 60 aa be
       -0.14630073 0.077809475 0.044774868 -0.33276373
000150 fc a9 ae 3c 1a 81 6b be 34 3a af 3c 62 49 b5 bd
       0.02132129 -0.22998467 0.021390058 -0.08851887
000160 7f 58 d7 be 6d 73 bb 3d 5a 13 69 3d 66 59 5a 3d
       -0.42059705 0.09152875 0.05690322 0.053307913
000170 68 03 5e 3d 1e dc 73 bd c5 44 0a bf 02 a8 04 3d
       0.054202467 -0.059536092 -0.54011184 0.032386787
000180 80 51 82 be 21 0b 8b be 00 42 f3 ba c7 4b c5 be
       -0.25452805 -0.27156928 -0.0018559098 -0.38534376
000190 fa 60 3e 3d f9 c2 7f bd fa f7 ca be 8b b0 c1 3d
       0.046479203 -0.0624418 -0.39642316 0.09457501

weight f4 [104, 104]
000000 bd f1 a4 3d 56 9c 47 3d 13 df 55 bc 54 c6 84 3d
       0.080539204 0.048733078 -0.013053673 0.064831406
000010 dd 30 08 3c 54 45 0f 3e d2 72 44 3d d9 7d b3 3d
       0.008312431 0.1399129 0.047961064 0.08764238
000020 dc d0 aa bc 5d ec c8 3d 69 10 0e 3e e8 06 3e 3c
       -0.020851545 0.09810708 0.13873447 0.011598326
000030 6d 19 93 bd 68 bf c2 bb 38 d9 38 3e ca d7 2b bd
       -0.07182584 -0.0059432276 0.18051612 -0.04195384
000040 ac 8a 0f bd b2 3c 11 3d c4 38 a3 3c 2f c8 bc 3d
       -0.035044357 0.035458274 0.019924529 0.092178695
000050 a4 08 1e bd 7d d2 45 3d 6b fd 77 3c ad 4f a5 bc
       -0.03858246 0.04829644 0.015136103 -0.020179594
000060 91 48 c2 bd 1e e0 0c bd 9d b3 ac bd 5f 4c e3 3d
       -0.09486497 -0.034393422 -0.08432696 0.11098551
000070 b0 69 c2 3b 78 12 3b 3c 2a 31 01 3d 9e b5 3b bd
       0.005933009 0.0114179775 0.031541027 -0.0458275
000080 e4 a5 94 3c 7a eb 75 bc 4a d1 16 3d 29 bc 48 bd
       0.018145509 -0.015009755 0.036820687 -0.04900757
000090 c3 4d 75 bd a6 6d b4 3d 72 f6 0b ba 9c 6a 80 be
       -0.059888612 0.08809976 -0.00053391524 -0.25081336
0000a0 05 41 c0 3d 10 84 09 3e 0f 9e 90 bd 30 55 ee 3b
       0.093874015 0.13429284 -0.07061397 0.0072733387
0000b0 7a b6 6b bd 39 d7 56 3c 41 eb d5 3c f1 3a 1f bc
       -0.05754707 0.0131128365 0.026113154 -0.009718643
0000c0 a0 7a 89 3d a7 84 ee 3b 72 77 6d 3d 07 a6 9a 3c
       0.06712842 0.007278997 0.05797524 0.018877996
0000d0 55 19 24 3d e8 e3 89 3d 7c 86 3a 3d a0 5d 50 3d
       0.04006322 0.06732923 0.04553841 0.050870538
0000e0 16 63 6f bc cf 8e eb bc 9e a3 a6 3d 43 ab ba 3d
       -0.014611026 -0.02875462 0.08136676 0.09114697
0000f0 c8 f1 7b 3c 0e 16 c8 3d ce 44 54 3d b1 fa 82 3d
       0.015377469 0.097698316 0.05182343 0.06395472
000100 3f 53 0b 3d 5e 59 35 3d c2 7e 9f bd 47 7f b7 bd
       0.034014937 0.04427468 -0.07787849 -0.08959823
000110 db dc b6 3d 10 b8 68 bd 3a 58 d6 3d 6e 0b a2 bd
       0.089288436 -0.05681616 0.10466047 -0.07912336
000120 bb bc 8d bd 19 69 77 bc f7 21 b3 3d bb 45 89 bd
       -0.06920763 -0.015100741 0.08746713 -0.06702753
000130 91 38 ac bd c0 e5 ce bb 93 5b 9f bc 6b 46 bf bd
       -0.08409227 -0.0063140094 -0.019452846 -0.09339603
000140 2c 7d d2 3d 27 8d 91 3d 69 16 a1 3d ce a2 bc 3d
       0.10277781 0.07107001 0.078656025 0.0921074
000150 0a b1 9b bd 5b c9 30 ba 4f 45 19 bd 05 1a ae bd
       -0.07602127 -0.00067438715 -0.037419613 -0.085010566
000160 97 b1 cf 3d f3 2f 06 bd 12 db 09 3d c8 3c 4c bd
       0.101412944 -0.03276057 0.033656187 -0.049862653
000170 0b ac b4 3d f5 80 8d 3d 08 98 0f 3e a9 f0 6d 3d
       0.08821877 0.06909362 0.14022839 0.05809084
000180 05 b6 e5 3d ca a0 92 3d 20 45 89 3c 55 3e 29 bc
       0.11216358 0.07159574 0.016756594 -0.0103298025
000190 47 30 a3 3d 15 f6 d1 bd b3 ab e5 3d a6 06 00 bc
       0.079681925 -0.102520145 0.1121439 -0.007814085
0001a0 8f 23 87 bc 3a 06 84 bd 66 b5 61 bd e7 c1 7f 3c
       -0.016496448 -0.064465 -0.055104636 0.015610195
0001b0 88 aa 23 bd db 21 e5 3c d8 0d 16 3b a9 f3 aa bd
       -0.039957553 0.027970245 0.0022896435 -0.08347256
0001c0 f2 17 58 3d 96 d7 30 bd 00 50 44 bd 14 d2 13 bd
       0.05275721 -0.04317435 -0.047927856 -0.036089018
0001d0 6e b2 1e 3d 2f 06 c6 bd ac 1e a6 bd 46 c0 d3 3c
       0.038744383 -0.09669148 -0.08111319 0.025848519
0001e0 c4 64 f3 bc 84 6c 98 bc c1 6f b4 bd 98 ed 22 3c
       -0.029711135 -0.018606432 -0.08810378 0.009944342
0001f0 82 f5 15 3d d9 4d 1f bd 64 52 e5 3b bc 28 39 3b
       0.036611088 -0.0388926 0.006998347 0.002825304
000200 76 e3 ac bc f5 fa a1 3d c5 74 cb 3c bf 70 77 3c
       -0.021104556 0.079091944 0.024835953 0.015102564
000210 a0 e4 47 bb 40 ae 06 bb f2 12 44 3d aa ae 95 3b
       -0.0030501261 -0.0020550638 0.04786963 0.0045679407
000220 c4 52 41 3c b3 fa a2 3d a0 3c 71 3d 69 3d 43 bd
       0.011799518 0.07957973 0.058895707 -0.047665987
000230 9e 71 a4 bd c1 2e 6b 3c 34 1b 9f bd f6 60 c8 bd
       -0.08029483 0.014354409 -0.077688605 -0.09784119
000240 51 e7 89 3d 75 97 a8 bd f9 cf c4 3d b4 02 b9 bd
       0.06733573 -0.08232013 0.0960998 -0.09033719
000250 69 09 a6 bd ee d5 69 3d 9a 50 d9 3b c3 55 5c bd
       -0.081072636 0.057088785 0.006631923 -0.053792726
000260 49 65 d4 3c c9 ab 94 bd b8 7c 60 bd a9 5e c7 bd
       0.025927203 -0.07259328 -0.05480644 -0.09734852
000270 ad 9b 4f bd e9 52 ab bd 69 d5 9b 3d cc 89 4a bd
       -0.050685573 -0.08365423 0.07609064 -0.04944782
000280 99 2c 9b 3b c6 f2 41 bd 48 df 03 bd e7 0c 76 3d
       0.004735541 -0.047350667 -0.03219536 0.0600709
000290 e4 7b a3 3c c3 55 12 3d df 91 01 3d 5f ac a3 bd
       0.019956537 0.03572632 0.031633254 -0.079918616
0002a0 b7 a0 42 3d 74 90 88 3d 50 e7 95 3c 6b f9 9f 3d
       0.04751655 0.06668177 0.018298775 0.078112446
0002b0 19 d7 74 bd c5 3a 84 bd 32 16 ba bd c8 07 7e bc
       -0.059775446 -0.06456522 -0.09086265 -0.015504785
0002c0 52 bd 24 bc 7a 48 6e bd c1 b8 35 bd b5 73 05 bd
       -0.010054903 -0.058174588 -0.04436565 -0.03258105
0002d0 f9 ad c1 3d 7c be 05 bc 92 d5 a2 3d 80 c2 1a 3c
       0.09457011 -0.008163091 0.079508916 0.0094457865
0002e0 c2 b3 bd 3c ee 73 67 3d 93 d7 b8 bd 6a f5 5f bd
       0.023157004 0.056507044 -0.090254925 -0.054677404
0002f0 aa 9f 98 bd 2b 3a 81 3d 7a 64 13 3d fd 30 0f bd
       -0.074523285 0.06309923 0.035984494 -0.03495883
000300 4d 21 ab bd 00 94 59 3d 0c 76 ba 3c 08 99 45 bd
       -0.08355961 0.05311966 0.022761367 -0.048241645
000310 12 bf 91 bd 51 9c 51 bd 93 93 8c 3c e2 b3 a9 bd
       -0.07116522 -0.051174466 0.017160213 -0.08286263
000320 9c 5b 94 bc 48 97 6d 3d fa 87 56 3d cd 73 9d ba
       -0.018110089 0.0580056 0.05237577 -0.0012012661
000330 60 b1 2a 3c 00 b1 bb 3c 3e d2 0d 3d f4 53 9d 3d
       0.010418266 0.022911549 0.03462433 0.076820284
000340 ff 07 bf 3c c2 cc 5c 3d 03 fd 8b 3d 48 c8 9b bd
       0.023319243 0.05390621 0.068353675 -0.0760656
000350 1f 60 56 bd 06 85 5c 3d 64 57 0e bd c7 d7 67 bd
       -0.052337762 0.0538378 -0.03475131 -0.056602266
000360 a4 5f ed 3c 3d 91 b6 bd cf 27 3e bd f2 88 4a 3d
       0.028976269 -0.08914421 -0.046424683 0.049447007
000370 20 54 29 bb 8e b6 87 bd 72 88 46 3d 50 49 df 3b
       -0.0025837496 -0.066266164 0.04846997 0.0068141595
000380 70 eb 65 bc 29 22 c1 bd 66 e1 10 bd 80 71 31 3c
       -0.014033183 -0.09430344 -0.035371207 0.010830283
000390 1c 44 5a bd 44 30 87 3c 3d a9 8e bd a5 f6 9a 3d
       -0.05328761 0.016502507 -0.069658734 0.07566575
0003a0 71 a3 9a 3d 52 92 6c 3d 20 dc 3e bc e2 28 d3 bd
       0.07550705 0.05775673 -0.011649162 -0.10310532
0003b0 5c d5 1c bd 98 27 02 bc fd 16 b9 bd 6f 1b 9e 3d
       -0.038289413 -0.00794401 -0.09037588 0.07720076
0003c0 ec a7 e4 3c 0f 5c 98 3d 4e ac b3 bd c9 62 a8 bd
       0.027912103 0.07439434 -0.08773099 -0.08221967
0003d0 90 0a b5 3c c4 12 1c bd 2b 97 69 bd a3 d6 92 3d
       0.022099763 -0.038103834 -0.05702893 0.07169845
0003e0 82 a2 25 3d 50 38 99 bb 37 62 bf 3d 7d da c3 bd
       0.040438183 -0.0046759024 0.09344905 -0.09563158
0003f0 8e 69 b6 bd 98 34 a0 3c e8 43 b6 3d c1 f0 62 3d
       -0.08906852 0.019556329 0.08899671 0.055405382

bias f4 [104]
000000 89 29 5c bc 3e 08 fa 3c cd 30 ed bb 85 d2 ba bd
       -0.013437637 0.030521508 -0.0072384835 -0.09122185
000010 23 f5 38 bf 22 e0 92 be 32 6c 1f 3e e1 bc 0f bf
       -0.7224905 -0.28686625 0.15568617 -0.5614758
000020 c2 e6 bd 3b 08 f7 e0 bd 86 fc ed be 26 c9 8c bc
       0.0057953307 -0.109846175 -0.46481723 -0.017185759
000030 42 ca aa be e9 9d e4 3d cd 97 9b be 3c 5e 47 be
       -0.33357435 0.111629315 -0.30389252 -0.19469541
000040 6c 86 1b 3e df 34 9e bd 77 19 05 bf 04 23 4d be
       0.15187997 -0.07724928 -0.5199198 -0.20032889
000050 bc c6 07 be 12 07 ba bd e5 1a de 3c 30 65 39 3c
       -0.13259405 -0.0908338 0.027112434 0.011315629
000060 91 d7 f6 bd e7 45 35 3c 2e 66 2d 3d 7f d6 3b 3e
       -0.12052835 0.011064029 0.042333774 0.18343543
000070 f0 d6 50 be 87 ff d1 bd a6 d6 b3 be 0e ca 2e 3d
       -0.20394492 -0.10253816 -0.351247 0.042673163
000080 4e 24 52 be b5 c0 8a bd af 80 65 be ff c9 66 bd
       -0.20521662 -0.06775037 -0.2241237 -0.056344982
000090 1c f0 a6 be 88 70 a2 be 78 66 af bd ca 8a dd 3d
       -0.32605064 -0.3172648 -0.08564466 0.108174875
0000a0 cc 8f 9f be 32 57 80 bc 15 cf 6a be 60 65 aa bd
       -0.31164396 -0.015666578 -0.22930558 -0.08320117
0000b0 18 eb 44 be b1 9a 6f be 80 2e a5 bd 44 a9 af be
       -0.19230306 -0.23398854 -0.0806551 -0.34308827
0000c0 de a0 44 bd 63 82 1e 3d ad bf dc bd 65 74 3f 3d
       -0.048004977 0.038698565 -0.10778747 0.04674186
0000d0 00 8e 8b bd ba f0 bf bd 2c ed 60 3d 4d 81 8f be
       -0.06814194 -0.09372087 0.054913685 -0.28028336
0000e0 64 96 d0 bd c4 b1 e0 3c 62 52 39 bd 0c 63 96 3c
       -0.10184935 0.027428515 -0.045244582 0.018357776
0000f0 fc 32 9b be f0 54 52 3d 0c b6 a6 be 96 18 df bd
       -0.30312335 0.051350534 -0.32560766 -0.10893361
000100 6b 6f 5e 3e 26 1e 4e 3d c1 35 84 be 66 6e 17 bd
       0.2172219 0.05032172 -0.2582226 -0.03697052
000110 32 2b 79 3d a8 60 d1 be 14 93 c1 3a e6 61 48 3d
       0.06083221 -0.40894055 0.0014768564 0.04892149
000120 00 63 75 bd 79 ba 4a be 7e 4e 18 bc 11 1f d2 be
       -0.059908867 -0.19797696 -0.009296058 -0.41039327
000130 3f 8e 83 3d 1e 8b 59 bd a8 d1 60 3e 61 4e f8 bd
       0.06423616 -0.053111188 0.21954978 -0.121243246
000140 18 15 b1 bd 6b 15 53 be c1 f8 e7 bd 1c c0 76 be
       -0.086466014 -0.20613639 -0.11326743 -0.24096721
000150 8a b1 26 be 64 11 78 be 91 27 ce bd 47 19 26 bd
       -0.16278663 -0.24225384 -0.100661404 -0.04055145
000160 a7 ba 01 be 0a af 3f be d6 e2 e2 be 2c 97 20 be
       -0.12668858 -0.18719116 -0.44313687 -0.15682667
000170 10 78 31 be fb fa 96 be 07 1d c9 be 80 99 79 bd
       -0.17330956 -0.29488358 -0.3927996 -0.060937405
000180 49 b2 f5 be 70 54 9b 3d 5a 04 e6 3c c3 9d 67 be
       -0.47987583 0.075844646 0.028078247 -0.22618775
000190 2c 52 0a bf 04 53 58 be 7c 38 88 bd 48 ce 80 bb
       -0.54031634 -0.21125418 -0.066513985 -0.0039308406

weight f4 [104, 104]
000000 fc a9 9f bd 03 28 de bc 24 71 14 3d 68 02 5c bc
       -0.07796094 -0.027118688 0.03624071 -0.013428308
000010 17 9d 31 3d db 59 22 3d 11 8f 92 3d 95 da 01 bd
       0.043362703 0.039636474 0.07156194 -0.031702597
000020 ae ec d5 3d 1e f5 92 3c fd 3e 4f 3d a8 be 72 bd
       0.10445534 0.017939147 0.05059718 -0.059263855
000030 39 c8 61 3d ba 48 de 3d 63 1e 81 3d e7 0f 6a 3d
       0.055122588 0.10853715 0.06304624 0.057144072
000040 d3 35 74 bd d1 67 51 bd 2e 8e 5f 3d 58 be 42 3d
       -0.059621643 -0.051124398 0.054578952 0.047544807
000050 08 87 6d bd da e8 48 bc 64 32 93 3c bd 3e 34 3c
       -0.057990104 -0.012262547 0.017968364 0.011001286
000060 36 18 81 3c 87 01 82 3d e0 d8 42 3d 99 74 fe bb
       0.015758615 0.063479476 0.04757011 -0.0077653644
000070 14 aa e0 bd b8 d3 d4 3d 0a 71 f7 3c b3 62 03 bd
       -0.1096994 0.10391945 0.030205268 -0.03207655
000080 96 86 92 bd 68 fa af bd 5e 81 b3 3d 46 e4 bb bd
       -0.071545765 -0.08592683 0.08764909 -0.09174399
000090 d8 29 9d bd 62 65 9d bd 63 ed df bc 80 58 da 3c
       -0.07673997 -0.07685353 -0.027334874 0.026653528
0000a0 28 d9 8b bd 24 b0 7f 3d d2 a1 54 bd 3c 56 91 bd
       -0.06828529 0.06242384 -0.051912136 -0.07096526
0000b0 d8 70 6d bd 6b b3 5c bd 33 fb 95 3d e2 dc c5 3c
       -0.057968944 -0.053882044 0.07323303 0.024153177
0000c0 58 ed 3f 3d da 29 9b bd df 00 a2 3d 43 32 0e 3d
       0.046857208 -0.07576342 0.079103224 0.034715902
0000d0 ae 68 fc bc 6d 66 1f bd 81 a2 d5 bc 0e 33 a5 bd
       -0.030811634 -0.03891604 -0.026078464 -0.080663785
0000e0 8c 04 9c bd f4 c4 4c 3d d8 00 d1 3d 62 69 36 bd
       -0.07618055 0.049992517 0.10205239 -0.044534095
0000f0 1e bb 25 3d 46 f3 e8 bc 7d cb a2 3d 1d 3b 5e bc
       0.040461652 -0.028436314 0.079489686 -0.013563898
000100 a2 c2 9c bd ed b4 a2 bc b7 b4 e7 3c be 8a 97 3d
       -0.07654311 -0.019861663 0.028284414 0.0739951
000110 f4 4e 45 3d 08 2d d1 3c 65 08 b7 bc f9 4b f3 bc
       0.048171 0.025534168 -0.02234287 -0.029699313
000120 ad fd 13 3d aa bb 6f bd 93 96 8b 3d ad 64 94 bc
       0.036130596 -0.05852858 0.06815829 -0.018114412
000130 72 a5 8c bd 6e b7 fd 3c 26 ca e7 3d 13 97 8e bd
       -0.06867494 0.030971255 0.11317854 -0.06962409
000140 8f d0 2e bd 1a 1e 42 bd 9b a5 9d bd 49 16 b4 3d
       -0.042679366 -0.04739199 -0.07697602 0.08793313
000150 40 a2 1f bc f8 36 8a bd f0 ce e5 bd d7 44 5a bd
       -0.009743273 -0.06748766 -0.11221111 -0.053288307
000160 80 6a 01 bb c1 1e d0 bc 9c 07 d0 bc cc 56 a5 bb
       -0.0019747317 -0.02540529 -0.025394253 -0.0050457474
000170 0b 7e 87 3d 59 31 ea bc 00 0d 81 3d f7 62 04 be
       0.06615838 -0.028587984 0.06301308 -0.12928377
000180 3f cb b4 3d f5 8d 50 bd 84 3a 11 bc 2b 83 f8 bd
       0.088278286 -0.05091663 -0.008864049 -0.12134393
000190 40 d6 8d 3d 9f 64 9d bc 95 e4 9d bd 69 26 0f bd
       0.069256306 -0.019213019 -0.07709614 -0.03494874
0001a0 7e 95 55 3d 58 b0 88 3d 0d 2c 8e 3d c2 cb c2 bd
       0.05214452 0.0667426 0.06941996 -0.0951152
0001b0 e4 16 35 bd 32 52 79 3c 07 cf b1 bb 2a ea 4b bd
       -0.044211283 0.015217351 -0.005426291 -0.049783863
0001c0 79 eb c4 3d bf 2f 78 bd 01 ca 80 3d f7 8b 82 3d
       0.09615225 -0.06059241 0.06288529 0.063743524
0001d0 35 1a ae bd c6 ef 83 bd c9 04 89 bd 1a 41 90 3d
       -0.08501092 -0.064422175 -0.06690366 0.07043667
0001e0 cc 46 b2 bd 4e ea f7 3a e0 c7 fb bc 6a 17 c0 bc
       -0.0870491 0.0018914433 -0.030734956 -0.023448665
0001f0 42 59 84 bd 37 c5 ab bd 78 15 ab bd 8c 86 1f bc
       -0.06462337 -0.08387225 -0.08353704 -0.009736668
000200 a4 97 92 3b 71 da c8 3c 8f b6 02 3d b2 06 27 bd
       0.0044736434 0.024518223 0.031912383 -0.04077787
000210 db 24 57 3d 45 44 6f 3d b0 a9 a0 bd 59 17 ad 3d
       0.052525382 0.058414716 -0.07844865 0.08451719
000220 25 0e 25 bc 1b af e0 bb 4c 0b c1 bd 96 15 4f 3d
       -0.010074173 -0.0068568117 -0.09425983 0.050557695
000230 fe aa 1d 3d d5 74 c6 3c 8e 83 33 3d 97 52 af bd
       0.03849315 0.024225632 0.043826632 -0.08560675
000240 13 97 c5 3d 80 c8 87 3d cf 4d f5 bc 78 59 4f 3d
       0.09647956 0.06630039 -0.029944329 0.050622433
000250 e1 b2 11 bd e8 75 06 bd 0d c1 ea bb e4 af 73 3d
       -0.035570983 -0.032827288 -0.0071641267 0.059493914
000260 35 a1 5f 3d 1b af 07 bd bf ba a4 bd 03 de f6 3a
       0.0545971 -0.033125978 -0.080434315 0.0018834475
000270 e6 64 2f bd 1c 24 15 bc 9d ef 4e 3d 60 9b 83 3d
       -0.042820834 -0.009102847 0.05052148 0.0642612
000280 75 96 6d 3b 09 7c 27 3d 5b 22 99 3c 4c e4 33 bd
       0.003625301 0.040889774 0.01869314 -0.043918893
000290 1d 7f 6b 3d 9d 45 8b bd 4f ec 05 bc bd 57 33 bd
       0.05749427 -0.06800387 -0.008174016 -0.043784846
0002a0 90 2d 6d bc 5b 13 a8 3d 3d a4 f6 3c ec d9 bb bb
       -0.014476195 0.08206817 0.030107612 -0.0057327654
0002b0 7f bc b9 bd 5f 8d 90 bd 22 42 aa bc 55 19 3e bd
       -0.09069156 -0.070582144 -0.020783488 -0.046410877
0002c0 c7 13 9a 3c 3e 96 c7 bd 9d 63 bc 3d 6b 4a f2 bc
       0.018808259 -0.09745453 0.09198687 -0.0295765
0002d0 3d 38 72 3d 47 3c 8f 3d af ac a5 3d 46 a1 88 bc
       0.059135664 0.06993919 0.080895774 -0.016678464
0002e0 70 c5 47 3b eb 1e 48 3d c9 bb 96 bd 30 79 05 bc
       0.0030482672 0.04885761 -0.07360036 -0.008146569
0002f0 0d f3 23 3d 2d 1b 45 bb 83 bc 90 bd 3c 82 7a 3c
       0.040026713 -0.0030076012 -0.07067206 0.015289839
000300 df e3 ad bc dc 84 72 3d b6 6e 8d bd f3 12 cc 3b
       -0.021226821 0.059208736 -0.06905882 0.006227845
000310 11 9f 66 bc e5 86 55 bb ca cc b3 3d a0 5b 35 38
       -0.01407601 -0.0032581624 0.08779295 4.3239095e-05
000320 e3 f2 8e bb ac 16 e2 bd ca 06 3f bd af 1a a4 bd
       -0.0043624504 -0.110394806 -0.046637334 -0.08012902
000330 89 79 ca 3b bd 63 b7 bc a7 a2 f1 3c c4 82 a4 3d
       0.006179039 -0.022386426 0.029496504 0.08032754
000340 46 50 66 bc 4c bd 85 bf 21 74 84 bf 55 db 9f bd
       -0.014057225 -1.0448394 -1.034794 -0.07805506
000350 5e d5 9e 3b 82 2f 67 bf da 15 6e bf 5b 07 85 bf
       0.0048472127 -0.90306866 -0.9300209 -1.039287
000360 f3 05 7e bf 48 6f 85 bf 52 b3 c5 3c 0e 61 71 bf
       -0.9922783 -1.0424585 0.024133358 -0.9428872
000370 dd 16 3d 3d 72 b2 49 bf f1 22 0f be ac 72 9f bd
       0.046164382 -0.7878791 -0.13978173 -0.07785544
000380 47 25 23 3d e2 38 88 bf d0 3b 5c bf 50 af f6 3c
       0.039830472 -1.0642359 -0.86028767 0.030112892
000390 de ee 99 bc 4c e5 80 bf f0 5a 71 bf 3a f7 6f bf
       -0.018790659 -1.0069976 -0.94279385 -0.9373661
0003a0 18 f4 5d bd a5 a8 0f bc 51 68 81 bf 4f 6f bc bc
       -0.054187864 -0.008768235 -1.010996 -0.023002295
0003b0 2b c4 de 3c 62 ff 64 bf 5a 87 76 bf 6c d5 73 bf
       0.02719315 -0.89452183 -0.9630028 -0.9524753
0003c0 c2 e8 bd be 5c 2a bc bb 23 4d e1 3d 1b 29 a4 3c
       -0.37091643 -0.0057423543 0.11001041 0.020039132
0003d0 21 51 c9 be 87 32 03 be dc 12 83 bf 0c 67 87 bf
       -0.3931971 -0.12812243 -1.024013 -1.0578322
0003e0 78 38 fa bc 26 ae 6e bf bb 19 21 3d ef 55 03 3d
       -0.030544505 -0.9323448 0.03933118 0.032064375
0003f0 4a 2d 41 bf f6 b1 89 bd 82 1e c7 bd 8b 94 01 bf
       -0.7545973 -0.067233965 -0.09722616 -0.50617284

bias f4 [104]
000000 09 f2 ad bd 67 09 43 3d f1 33 85 3f 9b 59 1e bc
       -0.0849343 0.04761639 1.0406476 -0.009664918
000010 9c 63 e8 bd 9c 2d 41 3d 03 c8 4b 3d 0c 00 10 be
       -0.11347124 0.047162637 0.049751293 -0.14062518
000020 7e 53 ea bc 9b 29 1f 3b 29 b2 a0 bd 0a d4 b5 ba
       -0.028604265 0.0024286273 -0.07846481 -0.0013872397
000030 d5 7d df bd 7d ce 22 be 4c 5f cb bd 3d b0 4c bd
       -0.109126724 -0.15899082 -0.09930286 -0.04997276
000040 0d d1 a0 3d 91 6b 09 3d a9 48 7f 3d 04 ff 75 3f
       0.07852373 0.03354985 0.062325153 0.9609225
000050 2d a5 44 3e 27 3f 42 bc 5e f7 a9 bd d4 f0 1b bd
       0.19203635 -0.011855877 -0.08299135 -0.03807147
000060 be 1d a1 3c cc 74 3a be 14 aa cc 3c aa cc 0f be
       0.019667502 -0.18208617 0.024983443 -0.14042917
000070 d3 1a 6a 3c 88 1d 9a 3d 6d 99 00 3b d7 70 a1 bb
       0.014288622 0.07525164 0.00196227 -0.0049267816
000080 91 06 92 bd 80 b8 29 3c af 45 88 3e bf fd f1 bd
       -0.07130159 0.01035893 0.26615664 -0.11815976
000090 59 94 80 3c 68 b9 19 be 93 03 89 bd cb 43 79 be
       0.015695738 -0.15012133 -0.06690135 -0.24342267
0000a0 18 c5 66 3e af 12 fa bd 67 5e ae 3c ba 6e a4 bd
       0.22536123 -0.12210595 0.021285249 -0.08028932
0000b0 e1 88 e9 bd 50 f3 96 3d 81 e0 b6 bc 04 d3 b1 3d
       -0.11403061 0.07370627 -0.022323849 0.08682826
0000c0 9f c6 95 bd 5c 36 f5 bd dc a5 30 bd 6d c0 e6 bd
       -0.073132746 -0.11973259 -0.043126926 -0.11267171
0000d0 53 5f da bd 77 9b fc bc 7d 2b 7f bd 3b b1 2d be
       -0.10662713 -0.03083585 -0.062297333 -0.1696214
0000e0 a2 84 ef bb e0 c6 a4 bd 1a cf 8a bc eb a7 20 bd
       -0.0073095122 -0.08045745 -0.016944457 -0.03922264
0000f0 f6 d4 bc 3c 4e f7 ac bd eb 4a ab 3c 7e 9f 8e bd
       0.023050766 -0.08445607 0.020909747 -0.069640145
000100 3c 5e 28 3b 79 16 be bd bc 15 a1 3d 02 69 73 3e
       0.0025690934 -0.0928163 0.07865474 0.23770526
000110 c4 28 88 bd ab 4c 82 3d f6 94 31 3d 4c e2 a9 bc
       -0.066484004 0.063622795 0.04335495 -0.02073779
000120 f2 fd 01 bd 67 3d 73 be b6 8b ec 3c e6 63 a7 bd
       -0.03173632 -0.23753892 0.028875213 -0.08173351
000130 14 13 9d bd b2 86 c6 bd 59 43 c2 bd 8e ad 40 3e
       -0.076696545 -0.0969366 -0.09485502 0.18816206
000140 71 a3 ae bd 61 fb 7d bd 31 20 71 bd c3 0f b2 3c
       -0.08527268 -0.06200731 -0.05886859 0.021736031
000150 53 ec 4a bc fa 19 83 bc 79 c3 0f be 4c cc cf bc
       -0.012385446 -0.016003598 -0.1403941 -0.025365971
000160 18 24 23 bb 22 b6 9f 3d 9a ed 64 bd d5 f8 b9 bd
       -0.002489334 0.07798411 -0.055890657 -0.09080664
000170 9e f9 2f 3d 97 f2 88 be 3f 46 0a be ca a3 83 3d
       0.042962663 -0.2674758 -0.1350336 0.06427725
000180 2b 61 17 bd 9f 87 19 bc aa 86 ba 3c e9 b7 37 bd
       -0.0369579 -0.0093707135 0.022769291 -0.044853125
000190 b2 fb e1 3c 61 0d 66 3d fb 62 69 3c bb c0 a2 3e
       0.027585838 0.056165103 0.01424479 0.31787667

weight f4 [104, 104]
000000 dd b9 02 be 02 8e c0 bd b2 d9 d4 bf 01 9d 5f bd
       -0.12766214 -0.09402086 -1.6628935 -0.05459309
000010 6b cb 7d 3d 58 a4 81 bc 73 d8 13 bd fd aa 8d be
       0.061961573 -0.015825436 -0.036095094 -0.27669516
000020 a0 ae 92 bd 9c 78 f7 bd 18 08 74 3d 7b df af bd
       -0.07162213 -0.12083551 0.05957803 -0.085875474
000030 fc 73 81 bb 81 2b 83 bc 7b 59 98 3d cf 6e 8d bd
       -0.003950594 -0.016011955 0.07438942 -0.06905901
000040 51 cd 62 bd 16 df b5 bd bd 2c 46 bd 86 ee 88 bf
       -0.055371586 -0.08880441 -0.04838251 -1.0697792
000050 99 83 8c 3d 2f 66 83 3e 4b df 83 bc 79 7e 0d 3d
       0.06861038 0.25663897 -0.016097685 0.03454444
000060 bc 33 c8 bb 42 01 ac bd 64 f4 f5 bd 6c c3 f2 bd
       -0.006109683 -0.083986774 -0.120095044 -0.1185368
000070 4b 27 1b bd 53 9b 7c bc 5c cd 73 3d 89 25 6f 3d
       -0.03787927 -0.015417892 0.059522018 0.058385406
000080 6e a2 9f 3d 61 7a 4f 3d 1e d2 1e be b8 16 17 bd
       0.07794653 0.05065382 -0.15509841 -0.0368869
000090 f6 03 b6 3c 58 77 30 bd 1a 64 a7 bd 2a c6 3b bd
       0.022218686 -0.043082565 -0.0817339 -0.04584328
0000a0 8c 73 ca bd 0e e6 83 bd f9 60 44 3d 10 19 b8 bd
       -0.0988532 -0.06440364 0.047944043 -0.08989155
0000b0 e6 fb d4 bd 90 e2 64 3d 70 ed ea bd 12 09 83 ba
       -0.10399608 0.05588013 -0.11471069 -0.000999721
0000c0 1e fd 7c 3c 49 e6 1a 3d 63 9a 98 bd d5 96 c1 bd
       0.015441207 0.037817273 -0.07451322 -0.09452597
0000d0 a5 2b ae 3d a6 df 38 bd 4b b5 61 3c e1 08 9e bc
       0.08504418 -0.045135163 0.013776134 -0.019291343
0000e0 34 2d bb bd b2 90 02 be 44 27 5e 3d a1 5d f9 bd
       -0.09139481 -0.1275051 0.054236665 -0.121760614
0000f0 1d 3e b9 bd 1d fd 28 3d cd 66 86 bc f7 d7 20 bd
       -0.0904505 0.041257013 -0.016406441 -0.03926846
000100 e5 ce b2 bd 4f b8 03 be 88 e0 87 3c a3 7d 63 be
       -0.08730868 -0.12863277 0.016586557 -0.22215895
000110 19 5c d0 3c 3b 73 33 3c d7 0f 51 3d ca bb a8 bc
       0.02543454 0.010952766 0.051040497 -0.020597357
000120 9b 50 4c bd fa 14 90 bd cf 17 0b bd 31 57 41 3c
       -0.04988156 -0.07035251 -0.033958253 0.011800573
000130 2c 1d 2e 3c a1 4c 36 3d 77 f3 60 3d 2b 1c 60 3e
       0.010627072 0.044506673 0.054919686 0.21885745
000140 74 a9 f8 bd 9f df 99 bd 8d f4 06 3c 98 e8 49 3d
       -0.121416956 -0.075133555 0.008237016 0.049294084
000150 c3 95 19 bd 26 a6 b4 bd 49 ae 45 bb b5 29 04 bd
       -0.03749634 -0.08820753 -0.0030163697 -0.032266337
000160 6b f1 a0 bd a5 c0 5b 3d a2 34 35 bd 6e 9a 85 3d
       -0.07858547 0.053650517 -0.044239648 0.06523596
000170 f9 53 53 bd 00 e9 34 bc d4 61 e8 bb 68 87 82 bd
       -0.051593754 -0.01104188 -0.00709174 -0.06373483
000180 df 58 20 3d 8f 81 ed bd a1 45 08 bc 3e ed b3 39
       0.039147254 -0.11596977 -0.008317382 0.000343183
000190 02 5f 33 bd c4 7a b1 bd c8 5a 5c bd ad bb 12 be
       -0.04379178 -0.08665994 -0.053797513 -0.14329405
0001a0 83 18 ef 3c ae 79 b8 39 cf 23 ca 3f f9 84 0a bd
       0.029186493 0.00035185873 1.5792178 -0.03381822
0001b0 e3 00 b6 3d 1e 47 56 bd a5 dd 2a bc 6b a4 94 3e
       0.08886888 -0.052313916 -0.010428821 0.2903169
0001c0 ae 7f 04 3e 7b c2 16 3c 4b b9 29 3d b8 8e 35 bd
       0.12939331 0.009201641 0.041436475 -0.04432556
0001d0 17 4a e1 3d d3 97 c3 3d 0d 6c a3 3d dd 1c bf bc
       0.1100046 0.095504425 0.079795934 -0.023329193
0001e0 1f b1 24 bd c1 84 91 bc a5 7f c3 3b 7d c4 88 3f
       -0.04020798 -0.017763497 0.005966144 1.0684963
0001f0 e7 8b 15 be c9 1f 3b be 05 08 6e bd 23 ac 53 3c
       -0.1460415 -0.18273844 -0.058113117 0.012919459
000200 d5 0b 37 bd 93 71 86 bd 88 26 24 bd b2 7d 1c 3d
       -0.04468902 -0.06564631 -0.04007581 0.03820581
000210 cf 56 53 bd f4 93 8a 3c c0 79 c5 bc 95 8b 74 bc
       -0.05159646 0.016916253 -0.024105906 -0.014925857
000220 66 8a d6 3d 4f 31 db 3a 1d 21 14 3e 62 d8 d1 3d
       0.10475616 0.0016723069 0.14465757 0.1024635
000230 70 3a 9b bd cb 9a f8 3c 8a 45 98 bd 6d 90 03 3e
       -0.075795054 0.030347249 -0.074351385 0.12848063
000240 10 f7 6a 3e 70 a9 de 3b 09 23 0b 3c cf f7 00 bd
       0.2294581 0.006795101 0.00849224 -0.03148633
000250 32 47 fc bc c9 57 82 3d bf ed f8 bc 78 ec 75 3b
       -0.030795667 0.063644 -0.030386804 0.003752498
000260 f3 ae f3 3d e1 c1 72 bd 6c 76 2b 3d 6f 0f b5 bc
       0.11898603 -0.05926693 0.041860983 -0.022102086
000270 7e 1d 74 3d b0 21 e2 3b f7 4b e3 3d ba 16 44 3d
       0.05959844 0.0069009885 0.110984735 0.047873236
000280 ad b0 8f bc 3d 77 67 3d 2c 70 c5 3c 0c 35 a9 3c
       -0.0175403 0.0565102 0.02410134 0.020655178
000290 ea 1e b7 bc 01 a4 9f 3d 94 7a 5a 3d e3 5c 05 3d
       -0.022353608 0.07794953 0.053339556 0.032559287
0002a0 93 e3 d5 bc 26 d5 02 3e 6f b5 fb bd e3 21 a1 3e
       -0.026109492 0.12776622 -0.12290465 0.31471166
0002b0 cf 90 9d bd 27 ea 1b bd 78 84 89 3d 85 26 82 3d
       -0.07693636 -0.038065102 0.067147195 0.06355003
0002c0 65 3d bb 3c ff 30 42 3d bb a8 c7 3c e1 a6 93 3d
       0.022856424 0.047410008 0.02437245 0.07209564
0002d0 49 e3 8d bd 2b 95 b1 3d f3 03 59 3c da 1e f7 bd
       -0.06928117 0.0867103 0.0132455705 -0.12066431
0002e0 79 e7 4d bd 7d d0 48 3d b5 22 d5 3b 5f 1c 8e 3d
       -0.050269578 0.049026955 0.0065043815 0.06939005
0002f0 87 76 02 bd 3a bc 2b bd 1a 1f 89 3d 65 44 08 3d
       -0.031851318 -0.041927554 0.06695385 0.03326835
000300 60 82 15 bd ff ee 09 bd ff 9d 1d bd 5f dc 6f 3d
       -0.03650129 -0.03367519 -0.038480755 0.05855977
000310 3c 9a 86 3d b6 94 e9 3c 93 6d 96 3d 3d 2b bf 3d
       0.065723866 0.028513294 0.073451184 0.09334419
000320 3d ca 44 3d de ab c0 bc 22 86 85 bd 14 0a 81 bc
       0.048044432 -0.023519453 -0.065197244 -0.015751876
000330 fd 60 e6 bc ef d6 81 3d 8b 30 cc 3d b2 b0 99 3e
       -0.02812242 0.063398235 0.09970196 0.3001762
000340 a3 12 ae bd 0b ff a9 bd f2 97 ce bf e5 5f 63 bd
       -0.084996484 -0.08300599 -1.614012 -0.055511374
000350 79 36 0e 3d 22 a1 00 be 8c 87 a1 3c 1a bb 8a be
       0.034719918 -0.12561467 0.019717954 -0.27095872
000360 c5 9d 3e 3d f6 03 f8 bd b7 07 32 3c aa be 69 bb
       0.04653718 -0.121101305 0.010866097 -0.0035666623
000370 60 1a c7 bd 6e d8 b8 bd f2 9e 29 3d af 29 81 bd
       -0.097218275 -0.09025656 0.041411348 -0.06306779
000380 75 89 22 3d bf 5f a4 bc 45 96 cf bc fc 1a 78 bf
       0.03968187 -0.020065187 -0.025340209 -0.96916175
000390 79 bc cc 3d 17 fe 75 3e eb 09 40 3b a3 11 40 3c
       0.09996886 0.24022709 0.0029302787 0.011722955
0003a0 1e 1a 46 3c 19 ec 1e 3d 45 71 6b 3d 5e 5d f8 3c
       0.012091188 0.03879938 0.05748107 0.030317958
0003b0 6f 45 1c bd e1 90 de bd a4 31 5f bd b5 98 3a bd
       -0.038152155 -0.10867477 -0.0544907 -0.04555579
0003c0 01 93 46 bc eb 42 be bd 36 61 8d be e2 d6 12 3d
       -0.012120009 -0.09290107 -0.2761323 0.03584946
0003d0 c7 dd 9e bd cc 12 ed bc 8f 85 99 3c 93 23 97 bd
       -0.077571444 -0.028939627 0.018740444 -0.07379832
0003e0 a3 77 3e be d4 e2 90 3d 40 e6 1f 3d ab ab b8 3c
       -0.18600325 0.07074514 0.039037943 0.022542795
0003f0 d6 dc 93 bd 03 73 be bd eb 6e 01 3d 4b 9d d4 bd
       -0.072198555 -0.092992805 0.03159992 -0.10381564

bias f4 [104]
000000 28 cf 05 3e 0b c6 ce 3c d9 aa ec bc 45 88 44 bd
       0.13067305 0.025240919 -0.02889006 -0.04798152
000010 f1 43 a5 bd b7 b7 9f bd e8 9f 89 3d 25 02 a4 3c
       -0.080695994 -0.07798713 0.06719953 0.020020554
000020 d3 b9 f4 3c 8c 72 05 3e e9 85 27 bd 56 94 f3 bd
       0.029873764 0.13031977 -0.04089919 -0.11893527
000030 8a 65 43 3d 66 4c 8b 39 ec 28 4f 3d 1c 28 e8 3c
       0.047704257 0.00026569067 0.050576136 0.028339438
000040 ef 5a bb 3c e0 95 8f 3c fd 53 aa bc 66 e7 aa bc
       0.022870509 0.01752752 -0.020792002 -0.020862292
000050 44 5c 13 3d 17 d8 a0 3d f2 66 85 bd 40 65 67 3c
       0.035976663 0.07853716 -0.06513776 0.014123261
000060 68 8f 08 3d 09 66 37 3d db ca b0 3d ec 15 4b 3d
       0.033339888 0.044775043 0.086324416 0.049581453
000070 1d bf ae bc 2b 60 07 3e 9d 85 99 bd 3d e1 05 3e
       -0.021331364 0.13220279 -0.07496188 0.13074203
000080 42 82 56 3d a7 3c a4 bd 0a 7c 82 3b 51 b8 cd 3c
       0.052370317 -0.08019381 0.0039820718 0.025112303
000090 94 ec 03 bd be 2b b5 bd d6 1e 3e 3d ea 67 28 3e
       -0.03220804 -0.08846234 0.046416126 0.1644589
0000a0 f1 ce 96 bd 4d dd 30 3d ae 74 ae bd da ec 3a bd
       -0.0736369 0.0431798 -0.08518349 -0.045636036
0000b0 29 5f 2f bb e5 3e 79 3d b4 ee c1 3a dc 3d 0b 3d
       -0.00267596 0.060850997 0.001479587 0.03399454
0000c0 e4 70 b6 3d 56 bf f3 bd ea e0 f5 3d 53 de e2 3c
       0.08908251 -0.11901729 0.120057896 0.027693903
0000d0 6d 68 99 3d bb 61 9c bd fa c7 91 bc 9b 37 a0 bd
       0.07490621 -0.07635828 -0.017795552 -0.07823106
0000e0 31 e5 3f 3d e7 29 74 bc b5 a0 87 bd f7 85 76 3d
       0.046849433 -0.014902568 -0.06622449 0.060186353
0000f0 00 9c f1 3c 25 e4 8d 3d 9b 6f 05 3d 8b 9e d0 bd
       0.029493332 0.06928281 0.03257714 -0.1018649
000100 aa 8f 74 bd 24 26 50 bd 90 a8 63 3d 89 d9 00 3d
       -0.05970732 -0.050817624 0.055580676 0.031457458
000110 7e 19 ac 3d 74 8d a1 bd a1 b8 01 3d d9 44 36 3d
       0.084033 -0.07888308 0.031670216 0.044499252
000120 0b ff ac bc 09 b2 ea bb c5 36 60 bc 87 4d cf 3d
       -0.021117708 -0.0071623367 -0.013684933 0.10122209
000130 bf 4e d5 3c 5d d4 f6 3d ea 1d 9e 3d 59 d0 c6 bc
       0.026038526 0.12052224 0.077205494 -0.02426927
000140 94 39 a0 bd fc 70 49 bd ef ee ea 3b d0 e8 c7 bb
       -0.07823482 -0.049180016 0.0071695964 -0.0061007515
000150 5c 12 b4 3d 3b c6 0a 3d af 9b 30 3d a7 54 38 3d
       0.08792564 0.033880454 0.04311722 0.045002606
000160 39 e4 c4 bc 27 f0 6a 3b 9f 85 9c 3b 69 09 e8 bc
       -0.024034606 0.0035848708 0.004776671 -0.0283248
000170 35 cd 0c 3c a9 54 7b bd 92 d4 07 bd ff 6c 2c 3d
       0.008593847 -0.061360035 -0.033161707 0.042096134
000180 bc 32 96 bd e4 6d 1e 3d d7 2c 24 bd 3b 17 94 bc
       -0.073338956 0.03867902 -0.040081825 -0.018077483
000190 57 43 6b 3c d9 f4 1a bd f1 e0 c5 3c f2 bf db 3d
       0.014359317 -0.03783116 0.024155112 0.1072997
